…
ls[Kmount /dev/sdc1 /mnt/ls[Kpushd /mnt/ls[Kcd demo_car/ls[Krm -rf *ls[Kcp -rv /home/ehhewng/demo_car/* .ls[Kcat trainImagePath.txt sync[Kexit[2Plspwdhelloclear[3Plsvi log.txt [Khistory  [K[K[K[K[K[K[K[K[K./darknet detector train cfg/demo_car.data cfg/demo_car-voc.cfg darknet19_448.conv.23 
demo_car-voc
layer     filters    size              input                output
    0 conv     16  3 x 3 / 1   416 x 416 x   3   ->   416 x 416 x  16  0.150 BFLOPs
    1 max          2 x 2 / 2   416 x 416 x  16   ->   208 x 208 x  16
    2 conv     32  3 x 3 / 1   208 x 208 x  16   ->   208 x 208 x  32  0.399 BFLOPs
    3 max          2 x 2 / 2   208 x 208 x  32   ->   104 x 104 x  32
    4 conv     64  3 x 3 / 1   104 x 104 x  32   ->   104 x 104 x  64  0.399 BFLOPs
    5 max          2 x 2 / 2   104 x 104 x  64   ->    52 x  52 x  64
    6 conv    128  3 x 3 / 1    52 x  52 x  64   ->    52 x  52 x 128  0.399 BFLOPs
    7 max          2 x 2 / 2    52 x  52 x 128   ->    26 x  26 x 128
    8 conv    256  3 x 3 / 1    26 x  26 x 128   ->    26 x  26 x 256  0.399 BFLOPs
    9 max          2 x 2 / 2    26 x  26 x 256   ->    13 x  13 x 256
   10 conv    512  3 x 3 / 1    13 x  13 x 256   ->    13 x  13 x 512  0.399 BFLOPs
   11 max          2 x 2 / 1    13 x  13 x 512   ->    13 x  13 x 512
   12 conv   1024  3 x 3 / 1    13 x  13 x 512   ->    13 x  13 x1024  1.595 BFLOPs
   13 conv    512  3 x 3 / 1    13 x  13 x1024   ->    13 x  13 x 512  1.595 BFLOPs
   14 conv     30  1 x 1 / 1    13 x  13 x 512   ->    13 x  13 x  30  0.005 BFLOPs
   15 detection
mask_scale: Using default '1.000000'
Loading weights from darknet19_448.conv.23...Done!
Learning Rate: 0.001, Momentum: 0.9, Decay: 0.0005
Resizing
576
Loaded: 0.000030 seconds
Region Avg IOU: 0.495183, Class: 1.000000, Obj: 0.500321, No Obj: 0.500620, Avg Recall: 0.000000,  count: 1
1: 413.623352, 413.623352 avg, 0.000000 rate, 0.164347 seconds, 1 images
…
